PPO/best_model.model (torch, 6308 bytes, 7 tensors)

fc1.weight f4 [24, 4]
00000000: b02c c8be 19e7 e03e e630 0ebe 4cd5 883e
00000010: 7c8a 233e ea78 febe 687e 4abe 708e f63e
00000020: f39a a8bd 095a abbe 2c35 023f 2f03 a2be
00000030: 25df 7fbf 9a9a c4be d3f9 65bf 2ab3 2d3f
00000040: 0676 3d3f 6a42 f03e 8e47 fd3f 7961 aa3e
00000050: 5417 78be e6a9 c0be 098f 8fbe 87d9 efbe
00000060: 673b 96bd 123f 783e 346f 543f 6ac8 3ebc
00000070: 0b59 10bf 9d8d 2d3e a640 f13c 9021 aa3c
00000080: e3df db3e 2cec 8c3d 64db e0be 030e 29be
00000090: 05e6 e93e 8eba 1abf 4456 373f 0697 1c3f
000000a0: bf0f 37bd 1fbb c93e 4c95 d63d a98b 83be
000000b0: d7e7 ab3e 4af4 9e3e 165c f43e 4132 c9bc
000000c0: 599b 373f a475 35bf e4bc 453f 2f5e 2d3f
000000d0: 22c9 91be e40c d1be 40f0 5d3c d8d9 5c3e
000000e0: b2a7 90bf 157e 113f 7404 9ebe fbdd ad3e
000000f0: b878 fe3e ac96 893e f9e0 2f3f af30 febe
00000100: 1e87 41bf 9ed6 60be 1139 0ebe 7da6 b83e
00000110: 5e45 f7be 9348 773e fae9 a73e 0ef6 14bd
00000120: c413 f43e b159 003f ee2b 093d fe3f 13bf
00000130: 3099 00bf b7f5 0abe e276 c8bf 8586 eb3e
00000140: eab8 9ebe e4a0 f3be e0bf 67be 34ce 52be
00000150: 3439 09be 486c 3d3e 903b f4bd 2843 dd3d
00000160: c3de 9b3c 40da e1be a79f 1e3f 85c6 103f
00000170: 4a7f f13e 1d2b 5b3e 308a 3fbf 1095 cfbe
-0.39096594 0.43926314 -0.13885841 0.26725233 0.15970796 -0.49701625 -0.19774783 0.48155546
-0.08232679 -0.3346713 0.50862384 -0.31643054 -0.99949867 -0.38399202 -0.89834327 0.6785151
0.74008214 0.4692567 1.9787462 0.3327749 -0.24227649 -0.37629622 -0.28038815 -0.46845648
-0.07335549 0.2424281 0.8298218 -0.011644462 -0.5638587 0.16948552 0.029449772 0.020767957
0.4294425 0.06880984 -0.43917382 -0.16509251 0.45683303 -0.6044091 0.71616006 0.61167943
-0.04469275 0.39400575 0.10477695 -0.2569249 0.33575317 0.31045753 0.47726506 -0.024560096
0.71721417 -0.7088263 0.7724135 0.6772184 -0.28473765 -0.40830147 0.01354605 0.21567476
-1.1301177 0.5683301 -0.30862772 0.3395842 0.49701476 0.26872766 0.68702656 -0.49646518
-0.755968 -0.2195687 -0.13888957 0.3606452 -0.4829511 0.24148779 0.32795697 -0.03636747
0.4767133 0.5013686 0.03348916 -0.5751952 -0.50233746 -0.13570295 -1.566128 0.46001068
-0.31000453 -0.47583687 -0.22631788 -0.20586473 -0.13400728 0.18498337 -0.11925423 0.10803825
0.01902712 -0.44111824 0.6196236 0.56552917 0.47167426 0.21403165 -0.7482023 -0.40543413

fc1.bias f4 [24]
00000000: bd29 093f f6e1 c5be f86c dd3e eb71 853d
00000010: 2eda 40be 6cc0 b93e 7575 43be 91f9 0f3f
00000020: 98c6 f2be babc 7d3e b0d2 62be 6b21 803e
00000030: 31a8 6d3d 98bb 8ebe b1b4 923e b145 fb3e
00000040: ce72 77bd 8eb0 e93e 5470 a13c bbf8 fe3d
00000050: 74d5 6abe e027 eebe 758e 2b3f 6251 0cbf
0.5357931 -0.38648957 0.432472 0.06515869 -0.18833229 0.3627962 -0.19087775 0.56240183
-0.4741714 0.24779025 -0.22150683 0.25025496 0.058021728 -0.27877498 0.28653482 0.49076608
-0.06041222 0.45642513 0.019706883 0.12449785 -0.22932988 -0.46514797 0.6701425 -0.5481168

fc2.weight f4 [24, 24]
00000000: 2c12 d0bd 58dc fdbc 9e41 063e 809f aa3b
00000010: 00cf 0dbd 00de 9b3b 5870 463d 1f32 b8bd
00000020: 08db 45bd d0c8 34bd 8801 6a3d 403a 263e
00000030: e6dc 0abe 4a69 443e 057f f0bd 32ef 25be
00000040: 1c9d 1e3d 131f 45be 50e9 42bc d4b5 4abe
00000050: 2088 1bbc b670 4dbe 962c 2e3e fc53 113e
00000060: 5a77 f0bd 6c16 453e 69a1 a9be 0cfd ebbd
00000070: cbae 233e 5262 36be 9043 f53d c17d 9bbe
00000080: 34e3 1cbc 0ee9 323e 510a 703e 8e7a bdbc
00000090: 81b7 003e 0ebe a0bd 3fea 64be efee 1fbe
000000a0: c61a 663d 6722 c9be 0d95 d5bd 7801 753d
000000b0: 38f0 593d 3013 853c c041 22bd 1d8f 0cbd
000000c0: afb4 693e 55b1 50be 479a c5bd df85 8b3e
000000d0: 1e2f 1fbf 139e 513e 6cc2 2e3f 0711 6f3e
000000e0: 321a acbd 398b 86be 0eb7 743c 6350 343e
000000f0: a35f ecbe 3439 e13d 0c60 8a3e 6ead b33b
00000100: 35b1 12be 695d 2f3d 4ea5 7fbe 993f e23e
00000110: 3cde 18be 2e23 16be ea42 0a3c c485 86be
00000120: b012 be3e 90c5 3c3e 65f6 883e de49 813e
00000130: 3d27 72be a8ac 913e bb83 c73d 2224 9c3e
00000140: b453 81be 8da3 f93e 4b38 373e af8e 9e3e
00000150: c1a1 833e 6013 72bc 431d 053f 570f 913e
00000160: a615 f93e cd3d 973e 6ae2 a93c a270 6f3e
00000170: 8aa2 2d3e d031 89bc 5e39 d13e e2d1 28be
00000180: 970a 313e 2067 873c a97e 88bc d8b5 f83d
00000190: 9daf c23e 6567 983e a18b 47be 043a 393d
000001a0: fc57 6cbd 62a8 223f 2a67 663e a88d a53e
000001b0: faea 153f a879 073e 9fdf 74bd 9e44 8a3e
000001c0: 25f5 9c3d 7a2d 4cbc 5786 9d3e 9b47 8bbd
000001d0: 8026 bcbc dc1e 37be 1293 d13e f943 743d
000001e0: 6569 773d d43f dd3d 17a1 513d a531 513d
000001f0: 7ad8 2ebe 2f1e 5dbc 3051 92be ee3a 54bd
00000200: 67e6 8e3b 006c a5be cd89 2dbe 1f76 283d
00000210: 9e08 8cbd 9cf2 f13d c05f 2bbd 3cf7 37be
00000220: 8d49 91be 4f83 1cbe e33a 7abe 6a6f 80be
00000230: da2a f7bd c0f1 44bc 83cb 94be f5e2 103d
00000240: ee62 303e 1810 573d 7c71 c63e 48cd 9e3d
00000250: 139f 213d 4938 743d e451 d8be 5b9b de3d
00000260: 7bc9 52be 9f55 bf3e f8e5 9f3c ce34 813e
00000270: c39f 173f ac8a 3abe 6a11 873d 4cd7 f0bc
00000280: e51d 563e d67b 983d b1b1 6b3e 2e59 d23d
00000290: 0a20 2b3e 7031 3c3d 46e8 dd3e c647 7c3d
000002a0: dee2 163e 48a5 bdbc 5e14 133e a8ef 433f
000002b0: 54c5 bfbe 3c66 55be 54d4 f23d 0344 023e
000002c0: 786b 5bbe d08b 2ebd 3a33 103e f543 53bd
000002d0: e7be 74be 28c6 1a3e 3a64 1f3f 5d03 24be
000002e0: 8378 0d3f 1c36 0f3e 2def f03d 1be1 673f
000002f0: 9c39 15bd 9e3f 2fbe 8882 333e b180 90be
00000300: ef6e 5c3e c02f a8bb a5c5 063e c919 413e
00000310: 6320 293e ab77 d53d d6bd 3dbe cb3b b33e
00000320: 914f 713e 055d 073f 44f1 b93d cce7 ab3e
00000330: c339 e73e 0057 ecbc ea32 81bd b283 a23e
00000340: 9211 303d b41c 943e 0ac2 ea3d fbad f63d
00000350: ac57 12be 0ecc 413e dc3f c93e e73b 843e
00000360: 5502 2d3e bc63 013e c890 053e 2c2d 8e3d
00000370: c2c8 4f3d ee62 b2bb 8e18 89be 5f66 20be
00000380: 9b43 6fbe dc33 88bd e0bc 233d d35d 34bd
00000390: 5011 85bd b0fa 1cbd f1c3 fb3d 05c3 50be
000003a0: 8dc1 08be ab77 523d ca1e b03d 4b6f 71be
000003b0: ac3c 313e 66ba 0e3e 4451 3c3d 0a6e 2abd
000003c0: a387 9cbe 4136 dcbd 9f8e 19be 6ff2 86be
000003d0: 20da 483d ce5b 2abe e08e f53c 7a82 10be
000003e0: 1f5e 40be 10d4 15bd d659 3cbe 45a9 aebe
000003f0: 1e25 debc ac79 1c3e a2a2 51be 1d3d c1bd
-0.10159716 -0.030988857 0.13110968 0.005207002 -0.03462124 0.004756689 0.048446983 -0.08993935
-0.048304588 -0.044136822 0.057130367 0.16233158 -0.13560829 0.1918079 -0.11742977 -0.16204527
0.03872405 -0.19250135 -0.011896446 -0.19795924 -0.009492904 -0.20062527 0.17009196 0.14192194
-0.117415145 0.19246835 -0.3313096 -0.11522874 0.15984647 -0.17810944 0.11975777 -0.3036938
-0.009575654 0.17471716 0.23441435 -0.023129728 0.12570001 -0.0784875 -0.22354983 -0.1561849
0.056177877 -0.3928406 -0.1042882 0.059815854 0.053207606 0.0162445 -0.039613485 -0.03431617
0.22822832 -0.20380147 -0.09648567 0.27250573 -0.6218127 0.20470457 0.68265414 0.23346339
-0.08403434 -0.26278093 0.014936222 0.1760879 -0.46166715 0.10997239 0.27026403 0.005483321
-0.14325412 0.042813692 -0.24965402 0.44189146 -0.14928526 -0.14661857 0.008438805 -0.2627393
0.37123632 0.18434739 0.26750484 0.2525167 -0.2364778 0.2845204 0.097419225 0.30496317
-0.25259173 0.48757592 0.17892568 0.30968234 0.25709346 -0.014775127 0.51997775 0.28332016
0.4864933 0.29539338 0.020737845 0.2338281 0.16956535 -0.016747385 0.4086408 -0.16486314
0.17289196 0.016528666 -0.016661959 0.12144059 0.38024607 0.29766384 -0.19486858 0.045221344
-0.057701096 0.6353818 0.22500291 0.32334638 0.5856167 0.13230002 -0.059783574 0.27005476
0.07663945 -0.012462014 0.30766556 -0.06800767 -0.022967577 -0.17882866 0.40932518 0.059635136
0.060403246 0.1080319 0.051179018 0.051072735 -0.17074767 -0.013495966 -0.28577566 -0.051814012
0.004360962 -0.3230896 -0.16947098 0.041128274 -0.06837581 0.11813852 -0.04183936 -0.17965406
-0.28376427 -0.15284465 -0.24436526 -0.25085002 -0.1206872 -0.012020528 -0.29061517 0.035372693
0.17225239 0.052505583 0.38758457 0.07753998 0.039458346 0.05962399 -0.42249978 0.108694755
-0.20584671 0.3737001 0.019518837 0.252356 0.5922815 -0.18216962 0.06595118 -0.029399537
0.20909841 0.07445495 0.23017003 0.10270916 0.1671144 0.045945585 0.43341273 0.061591886
0.1473498 -0.023150101 0.14363238 0.7653756 -0.37455237 -0.2083978 0.118569046 0.12721257
-0.21427715 -0.042613804 0.14082041 -0.05157848 -0.23900948 0.15114653 0.6226231 -0.16016908
0.5526201 0.13985485 0.11764369 0.9057786 -0.036431894 -0.17114112 0.17530262 -0.28223184
0.21526693 -0.0051326454 0.13161333 0.18857493 0.16516261 0.104232155 -0.18529448 0.35006556
0.23565508 0.5287631 0.09079221 0.33575284 0.45161256 -0.028850079 -0.06308539 0.317411
0.042985506 0.2892815 0.11462791 0.12044903 -0.14291257 0.18925497 0.39306533 0.25826952
0.16895421 0.12635702 0.13043511 0.069422096 0.050728567 -0.0054439222 -0.26776546 -0.15664051
-0.23365633 -0.066505164 0.039975047 -0.04403479 -0.06497443 -0.03832501 0.12293232 -0.20386894
-0.13355084 0.051383656 0.085996225 -0.23577611 0.173083 0.13938293 0.04597594 -0.041608848
-0.30572233 -0.107525356 -0.14995812 -0.26356837 0.049036145 -0.16636583 0.029975355 -0.14112273
-0.18785904 -0.03657919 -0.18393645 -0.34113517 -0.027117308 0.15280789 -0.20472196 -0.094354846

fc2.bias f4 [24]
00000000: b0e3 00be 0783 bb3c f000 093e 8545 eb3e
00000010: c1c2 a23e 40f4 f7bd 1a44 b83e 11db 42bd
00000020: 4776 aa3e 4014 fabc 7ef8 e6bc a567 783e
00000030: 8177 11be f14f edbd db8f 643e 9c0f 50be
00000040: 2053 82bd 6d25 36be 69ca 8bbe a368 37be
00000050: cbf1 c63e bc09 a33e 43ec e33e 1b4e 28be
-0.12586856 0.022889627 0.13379264 0.45951477 0.3178921 -0.12107134 0.35989457 -0.0475722
0.33293363 -0.030527234 -0.028194662 0.24258287 -0.14205743 -0.11587513 0.22320502 -0.20318455
-0.06363511 -0.17787714 -0.27302864 -0.1791101 0.38856348 0.31843364 0.4451619 -0.16436045

fc3_pi.weight f4 [2, 24]
00000000: 8c31 52bd 340c a7be 8f10 083d f801 9bbe
00000010: f735 f2be e314 10be c021 93be 593f 8cbe
00000020: d0bd adbe a7f7 733c 6359 c4bc 7904 dbbe
00000030: 9f2a 6abd 7c13 38bd eec1 f1be a0c3 0abc
00000040: 2b81 1dbe db10 02bd 89b0 3fbe a172 e6bb
00000050: 22bc a6be 28d6 b3be 38d1 d2be 1069 78bd
00000060: 7256 8fbd 8cea 42bc 241b cd3d 188e b23e
00000070: 9740 c03e cdff 763d 0d7a 153f e4a2 613d
00000080: 0d27 d03e 8d11 b73e 4efd b03d cb98 833e
00000090: ad66 bb3d 06e1 403e dd6f c33e d041 3bbd
000000a0: 8826 883d d499 a5bc 4a21 60bd b966 b13c
000000b0: 51f7 f33e 74f4 ff3e b9a1 c73e 40bf 943c
-0.051316783 -0.32626498 0.033218917 -0.3027494 -0.47306797 -0.14070468 -0.28736687 -0.2739208
-0.33933878 0.014890588 -0.023968404 -0.4277685 -0.057169553 -0.044940457 -0.4721827 -0.008469492
-0.15381305 -0.031754356 -0.18719687 -0.007032708 -0.3256541 -0.35124326 -0.41175246 -0.06064707
-0.0699891 -0.011896741 0.10014942 0.34874034 0.37549278 0.060302544 0.5838936 0.055086985
0.40654793 0.35755578 0.08642064 0.2570251 0.09150443 0.1883584 0.38171282 -0.04571706
0.06647974 -0.020214953 -0.054719247 0.021655427 0.47649625 0.4999119 0.38990572 0.018157601

fc3_pi.bias f4 [2]
00000000: cc57 78be 7db2 b83e
-0.24252242 0.36073676

fc3_v.weight f4 [1, 24]
00000000: c8a8 51bd 43ce 9b3d 1913 9a3e 7aec 203d
00000010: 90d8 0dbe 68fe 10bd 289e 26bc c4fb 3b3e
00000020: c538 bcbd 4dd5 983d 9719 7a3e 0e56 123d
00000030: c141 8b3d c47c 22be b56d 373d 3c75 eb3d
00000040: 7889 50be 999e 7dbc 9ccd 54bc 7b5e 8e3c
00000050: 2ed3 d13d 3a1c 66bd 7e67 813d 8af6 e1bd
-0.051186353 0.07607701 0.30092695 0.03928802 -0.13852143 -0.03539887 -0.010169543 0.1835776
-0.091905154 0.07462559 0.24423824 0.0357266 0.06799651 -0.15867907 0.04478236 0.1149697
-0.2036494 -0.015479707 -0.012988474 0.017379036 0.102453575 -0.056179263 0.06318568 -0.11033352
