PPO/best_models/1/best_model.model (torch, 6308 bytes, 7 tensors)

fc1.weight f4 [24, 4]
0	0xbe4c6e9f	-0.19964074
1	0xbed11873	-0.40838966
2	0xc02f6e70	-2.7411156
3	0xc005aa04	-2.088502
4	0xbeb8190a	-0.35956603
5	0x3f318617	0.6934523
6	0xbe7d3a3f	-0.2472925
7	0x3e194ee9	0.14971508
8	0xbf35a5b0	-0.70955944
9	0xbe0d05ab	-0.13771693
10	0x3f668aff	0.9005584
11	0x3f0920ba	0.5356556
12	0x3baf87b2	0.0053567523
13	0xbe6c7dab	-0.23094814
14	0x3f18f34a	0.5974623
15	0xbe2d96b5	-0.16952021
16	0xbd9bbebf	-0.07604741
17	0xbed70c67	-0.4200165
18	0xbf83b01e	-1.0288122
19	0xbf218edb	-0.63108605
20	0xbf22dd4a	-0.6361891
21	0xbd5c1b67	-0.05373707
22	0x3e49d2d0	0.19709325
23	0xbe2033df	-0.15644787
24	0xbf016a7c	-0.5055311
25	0x3e9b6d7b	0.30356964
26	0xbef939ff	-0.4867706
27	0x3df828a9	0.1211713
28	0x3e2e66f1	0.17031457
29	0x3f5ebf1a	0.8701035
30	0x40114477	2.2698038
31	0x3ff2ff2b	1.8984121
32	0xbe8379a0	-0.2567873
33	0xbe90ce46	-0.28282374
34	0xbf11028d	-0.5664452
35	0xbf23c4a7	-0.6397194
36	0x3d6edf72	0.058318563
37	0xbe92af5e	-0.2864942
38	0x3e09b313	0.13447218
39	0xbe5a4369	-0.21314777
40	0xbeb3f4ca	-0.35147697
41	0x3f0056b7	0.50132316
42	0x3f8849c9	1.0647517
43	0x3f3f815d	0.7480677
44	0xbe708ed0	-0.23491979
45	0x3e921de7	0.2853844
46	0x3fcc222e	1.5947931
47	0x3ff839fd	1.9392697
48	0xbf5034bd	-0.8133047
49	0xbeb0be2a	-0.34520084
50	0x3fa62037	1.2978581
51	0x3f436a22	0.7633382
52	0xbde4d5e0	-0.11173606
53	0x3ec45e59	0.38353232
54	0x40009a7b	2.0094287
55	0x3fd3b9e1	1.6541101
56	0x3d4778cd	0.04869919
57	0xbe4713ee	-0.19441196
58	0x3eb5f387	0.3553736
59	0xbdb425da	-0.08796282
60	0xbd6b5917	-0.05745801
61	0xbf002287	-0.50052685
62	0xc0052c06	-2.080812
63	0xbf4d0e43	-0.80099887
64	0x3e4b4f97	0.1985458
65	0xbe378be1	-0.17924453
66	0xbf8f1049	-1.1176845
67	0xbf9faa7c	-1.2473903
68	0xbe564848	-0.2092601
69	0x3cc3b2fc	0.023889057
70	0xbe525dc9	-0.20543589
71	0x3e26bef0	0.16283774
72	0x3ea82194	0.32838118
73	0xbf2243ea	-0.6338488
74	0xbef1cb46	-0.47225398
75	0xbd2806cd	-0.04102211
76	0x3da47feb	0.08032211
77	0x3e72720a	0.23676315
78	0x3fcdeb28	1.6087389
79	0x3faddf42	1.3583758
80	0xbe2d0fbb	-0.16900532
81	0x3f096b30	0.5367918
82	0x3fcfdc37	1.6239079
83	0x401e8f9c	2.4775152
84	0xbd98f19f	-0.074679606
85	0x3ebdb541	0.37052348
86	0x400bcdba	2.1844316
87	0x4015b7c9	2.3393424
88	0xbe7c711a	-0.2465252
89	0xbd92227c	-0.071354836
90	0xbf49e850	-0.78870106
91	0xbf01b052	-0.5065967
92	0xbecdd402	-0.40200812
93	0xbde9ac08	-0.114097655
94	0xbef0d4ac	-0.47037256
95	0xbdea8548	-0.11451203

fc1.bias f4 [24]
0	0x3f6f5dd0	0.9350252
1	0x3f6626a8	0.89902735
2	0xbb197839	-0.0023417606
3	0xbe88bb4d	-0.267054
4	0x3f0f84a8	0.5606179
5	0xbdda81de	-0.106693015
6	0xbed791a6	-0.42103308
7	0xbdfd9f5e	-0.123839125
8	0xbe90d568	-0.28287816
9	0xbf48c4c5	-0.78425246
10	0x3f526f16	0.82200754
11	0x3f1e0419	0.61725
12	0x3e356162	0.1771293
13	0x3f1ac806	0.6046146
14	0xbeaa11c6	-0.33216685
15	0x3f784766	0.96983945
16	0xbd3861cc	-0.04501514
17	0xbf3f389f	-0.7469577
18	0x3e13a664	0.14418942
19	0x3e867d5b	0.26267514
20	0x3e9fe2b7	0.31227657
21	0x3d996412	0.0748979
22	0xbec5ad17	-0.3860862
23	0xbec60f84	-0.38683712

fc2.weight f4 [24, 24]
0	0xbe54d864	-0.20785671
1	0xbe88bad1	-0.2670503
2	0xbe30ffb2	-0.1728504
3	0xbd46eff4	-0.04856868
4	0xbd1d026f	-0.0383324
5	0x3dbe19af	0.092822425
6	0xbd7ff581	-0.06248999
7	0x3be42cc0	0.0069633424
8	0xbe08a4bd	-0.13344093
9	0xbe1e3934	-0.15451509
10	0xbe0aa0ee	-0.13537952
11	0xbe8c76e1	-0.27434447
12	0xbe128cf0	-0.14311576
13	0xbe44f2f9	-0.19233312
14	0xbe98fc89	-0.2988017
15	0x3d0f2854	0.03495057
16	0xbe2990af	-0.16559099
17	0xbd09a524	-0.033604756
18	0xbdb49967	-0.08818322
19	0xbe4909c6	-0.19632635
20	0x3e688c86	0.22709855
21	0x3de9b644	0.114117175
22	0xbda00039	-0.078125425
23	0x3e05ba3e	0.13059327
24	0xbf436364	-0.76323533
25	0x3f027b49	0.5096937
26	0x3ea75e95	0.32689348
27	0x3e865a13	0.26240596
28	0x3e3743a4	0.17896897
29	0xbde065bd	-0.10956905
30	0x3eb9304b	0.36169657
31	0x3f688c01	0.9083863
32	0xbe33a630	-0.17543864
33	0x3c836d56	0.016043346
34	0x3ee67e7d	0.45018378
35	0x3f3b37a3	0.7313177
36	0x3ed288c6	0.41119975
37	0x3f0267bf	0.50939554
38	0x3dd1a8f8	0.10237306
39	0xbd12da63	-0.0358528
40	0xbeb0d5ee	-0.34538215
41	0x3e75d857	0.24008308
42	0xbdd574e6	-0.10422687
43	0x3ef9e855	0.48810068
44	0x3f4e4afa	0.80583155
45	0x3edfa788	0.43682504
46	0xbe9e3ef7	-0.30907413
47	0xbd71c554	-0.059026077
48	0x3e0c2b9d	0.13688512
49	0x3eed0233	0.4629074
50	0xbce01608	-0.027354255
51	0x3d959fca	0.07305868
52	0x3eee7c19	0.46579054
53	0xbe0fda2f	-0.14048074
54	0x3e35a3e8	0.17738307
55	0xbe738d07	-0.23784266
56	0xbe22bbe5	-0.15891989
57	0xbe910795	-0.28326097
58	0x3ea8dad0	0.3297944
59	0x3e94d396	0.29067677
60	0x3e2690f2	0.1626623
61	0x3ea303c6	0.31838816
62	0xbe402e0f	-0.1876757
63	0x3e73ee30	0.2382133
64	0xbc2913f8	-0.010319702
65	0xbe19be81	-0.15014078
66	0xbe664578	-0.22487438
67	0xbcec9c71	-0.02888319
68	0x3c264c72	0.010150062
69	0x3d1f980f	0.038963374
70	0xbe8eae72	-0.27867466
71	0x3e086040	0.13317966
72	0xbddf0953	-0.1089045
73	0xbdb06cd2	-0.08614506
74	0x3e480ff8	0.19537342
75	0xbe4efa7f	-0.20212744
76	0xbe8d93b6	-0.27651757
77	0x3dc026f8	0.09382433
78	0x3dd1b969	0.10240442
79	0xbe516a49	-0.20450701
80	0x3e4fa504	0.20277792
81	0x3c530690	0.012879983
82	0xbdf14f1b	-0.11782666
83	0xbe2f081e	-0.1709294
84	0xbe4cdd3c	-0.20006269
85	0xbe7d95f2	-0.24764231
86	0xbd81964e	-0.063274965
87	0xbe17b6fe	-0.148159
88	0xbe017ff9	-0.12646474
89	0x3e0ddc9c	0.13853687
90	0xbb17d274	-0.0023166211
91	0xbe1516ea	-0.14559522
92	0xbdae6d4c	-0.085169405
93	0xbe7ac8dd	-0.24490686
94	0xbbb08e26	-0.005388039
95	0x3df0ba50	0.11754286
96	0x3ec09e65	0.37620845
97	0xbe680df4	-0.22661573
98	0x3e131c33	0.14366226
99	0x3e491624	0.19637352
100	0xbeb38171	-0.35059693
101	0x3dea3adf	0.1143701
102	0xbedfbc46	-0.4369833
103	0xbe0014da	-0.12507954
104	0xbe585775	-0.21127112
105	0xbca6614b	-0.020310065
106	0xbd8e1271	-0.06937111
107	0x3e4f7e1b	0.20262949
108	0x3e341161	0.17584755
109	0xbe86b5cc	-0.26310575
110	0x3c952480	0.018205881
111	0xbd91a8d8	-0.071122825
112	0xbeacce39	-0.33751085
113	0xbea3efc9	-0.3201888
114	0xbef22084	-0.47290432
115	0xbe3c8bff	-0.1841278
116	0x3ddaa9b0	0.106768966
117	0xbe8b2972	-0.27180058
118	0xbf34d74d	-0.7064102
119	0x3d1435d4	0.036184147
120	0x3f5c8f5f	0.86156267
121	0x3eb5af12	0.3548513
122	0xbdb4bc2a	-0.08824952
123	0x3dfebc58	0.124382675
124	0x3e2bbd4a	0.16771427
125	0x3e09b043	0.13446145
126	0xbe993ea7	-0.29930612
127	0xbf10a856	-0.5650686
128	0xbe7e1368	-0.2481209
129	0xbeb23e31	-0.34813073
130	0x3e9e4229	0.3090985
131	0xbeb50184	-0.3535272
132	0xbea000bb	-0.31250557
133	0x3e20790b	0.15671174
134	0x3bf1c3f6	0.0073780967
135	0x3eacda32	0.3376022
136	0x3e558b56	0.20853934
137	0x3dae0b9e	0.084983096
138	0x3ea4ee4e	0.32213062
139	0xbe34eb08	-0.17667782
140	0xbe9d4d00	-0.3072281
141	0xbdbb6b14	-0.09151283
142	0xbdc3f71c	-0.09568617
143	0xbe0d6bff	-0.13810728
144	0xbf836bd6	-1.0267284
145	0x3e82bb1a	0.25533372
146	0x3e12b1b5	0.14325602
147	0x3e3556b5	0.17708857
148	0x3d8eab5a	0.069662765
149	0x3da9f453	0.08298554
150	0x3e7c2338	0.2462281
151	0x3f6fcd61	0.9367276
152	0xbd9d1b3a	-0.07671209
153	0x3dd62de9	0.104579754
154	0x3f08e1ee	0.5346974
155	0x3f4dd616	0.80404794
156	0x3e145bfa	0.14488211
157	0x3f0dc075	0.5537179
158	0xbe3782a7	-0.17920934
159	0x3dd6913e	0.104769215
160	0xbe876670	-0.2644534
161	0x3dd82815	0.1055452
162	0x3c8e6f6a	0.01738711
163	0x3ed4d7b3	0.41570815
164	0x3f5c3820	0.8602314
165	0x3ef21e59	0.47288778
166	0xbef30d5d	-0.47471133
167	0x3e2b053a	0.16701213
168	0x3fc9258c	1.5714583
169	0x3df7d962	0.12102009
170	0xbe72c411	-0.23707606
171	0x3ddb72d5	0.10715262
172	0x3f2a6bf3	0.6657097
173	0xbe5d8cdb	-0.21635763
174	0xbef22875	-0.4729649
175	0xbfbc2773	-1.4699539
176	0xbf1996c1	-0.5999566
177	0xbe2b7176	-0.167425
178	0xbd1a792b	-0.03771321
179	0xbf16a4ae	-0.5884503
180	0xbdd75a4b	-0.10515269
181	0xbf14460d	-0.5791939
182	0x3e3b4937	0.18289648
183	0x3f425b3e	0.75920475
184	0x3dfe3406	0.124122664
185	0xbe8aefa2	-0.2713595
186	0x3d324698	0.043524355
187	0xbe619d77	-0.22032724
188	0xbf4da7a3	-0.8033392
189	0xbf945a61	-1.1590081
190	0xbef0783c	-0.46966732
191	0xbe00bc7e	-0.12571904
192	0xbdd5a35b	-0.10431548
193	0xbdd1c5a9	-0.10242779
194	0xbd81eb6a	-0.0634373
195	0xbc9430a0	-0.018089592
196	0x3db67188	0.08908373
197	0xbdc5d5ad	-0.09659896
198	0xbd6da92c	-0.058022663
199	0xbe147410	-0.144974
200	0x3a3b3200	0.00071409345
201	0x3e06b616	0.13155398
202	0xbc511e70	-0.0127636045
203	0xbe4006a2	-0.1875253
204	0x3cc36680	0.023852587
205	0x3b2f3440	0.0026734024
206	0xbe2c5c55	-0.16832097
207	0xbcdb9340	-0.026803613
208	0x3d216eec	0.039412424
209	0x3e38e870	0.18057418
210	0x3e18571c	0.1487698
211	0xbdb831bd	-0.08993862
212	0x3e253fa8	0.16137564
213	0x3de93d20	0.11388612
214	0xbe42070b	-0.18947999
215	0x3d8e80ec	0.06958184
216	0xbe91f86f	-0.28509852
217	0xbe36b541	-0.1784258
218	0x3db8c529	0.0902198
219	0x3de0d5a6	0.1097825
220	0xbedbade4	-0.42906106
221	0xbc96fe74	-0.01843188
222	0xbe08886e	-0.13333294
223	0xbcce8e95	-0.025214473
224	0xbe41413b	-0.1887254
225	0xbd8c869d	-0.06861613
226	0xbe9131c4	-0.2835828
227	0xbd472961	-0.048623446
228	0x3e02e3d7	0.12782227
229	0xbecd9537	-0.40152904
230	0xbd7a2371	-0.061068956
231	0xbeb2f57a	-0.3495291
232	0xbe2642bb	-0.16236393
233	0xbcc6f63b	-0.024287334
234	0xbddb9e2a	-0.10723527
235	0x3dc739cd	0.097278215
236	0x3d3a6320	0.04550469
237	0xbe1172cd	-0.1420395
238	0xbe8eef5e	-0.27916998
239	0xbe32b1aa	-0.17450586
240	0xbf3486c4	-0.70518136
241	0x3e981aba	0.2970789
242	0x3eac5a12	0.33662468
243	0x3e6e9936	0.23300633
244	0xbe9a26fd	-0.3010787
245	0x3ece9881	0.40350726
246	0x3e38d3fc	0.18049616
247	0x3f54c481	0.8311234
248	0x3e1aee4e	0.15129969
249	0x3e5f8484	0.21827894
250	0x3f251724	0.64488435
251	0x3f3e7df0	0.74410915
252	0x3e6f87fd	0.23391719
253	0x3f56825f	0.8379268
254	0x3c1e657f	0.009667753
255	0xbf0195d1	-0.50619227

fc2.bias f4 [24]
0	0xbd8466c7	-0.06464916
1	0x3e996da9	0.29966477
2	0x3f03aa82	0.5143205
3	0xbe8725e0	-0.26396084
4	0xbd692913	-0.056923937
5	0x3eb97189	0.36219433
6	0x3d9a1dba	0.07525201
7	0x3ea318c7	0.3185484
8	0xbe239a0a	-0.1597673
9	0xbda602ef	-0.08106028
10	0x3decd72e	0.1156448
11	0x3f1421cf	0.5786409
12	0xbd146120	-0.036225438
13	0x3e93ed5b	0.28892025
14	0x3de89ba7	0.11357813
15	0x3f0353fb	0.5130002
16	0xbe20a456	-0.15687689
17	0x3e4b17ea	0.19833341
18	0xbf1b55fe	-0.6067809
19	0xbdeaa438	-0.114571035
20	0xbe621549	-0.22078432
21	0x3e572563	0.21010356
22	0xbe2c9894	-0.16855079
23	0xbea042bc	-0.31300914

fc3_pi.weight f4 [2, 24]
0	0x3e06cb24	0.1316343
1	0xbf504117	-0.8134932
2	0xbe88c30d	-0.26711312
3	0xbb954067	-0.0045547965
4	0x3dfaefe9	0.122527905
5	0x3efa8392	0.48928505
6	0xbf461334	-0.7737305
7	0x3fc5322b	1.5405935
8	0xbdace03c	-0.08441207
9	0x3e866ca3	0.26254758
10	0xbfae7813	-1.3630394
11	0x3fe03a6e	1.7517831
12	0x3d5b1173	0.053483438
13	0x4006f09b	2.1084354
14	0x3ed5c658	0.41752887
15	0xbe726435	-0.23671038
16	0x3e5626ed	0.20913287
17	0x3ea82bbb	0.32845864
18	0x3f97c773	1.1857742
19	0x3e6b5cfb	0.22984688
20	0x3d2c5938	0.042077273
21	0xbf04b626	-0.51840436
22	0xbd231d74	-0.03982301
23	0xbf0ce42b	-0.55035657
24	0x3d445841	0.047935728
25	0x3eec3a82	0.46138388
26	0x3bbb815b	0.0057222075
27	0x3e234b49	0.15946688
28	0xbe2b8b70	-0.1675241
29	0xbea038bd	-0.31293288
30	0x3f358a1c	0.70913863
31	0xbfa2291b	-1.2668794
32	0x3bdc1d20	0.006717339
33	0xbd9937af	-0.07481324
34	0x3f936032	1.1513731
35	0xbfd97d7c	-1.699142
36	0x3dabfe56	0.0839812
37	0xbffb5bec	-1.9637427
38	0xbea54b03	-0.32283792
39	0xbd553db1	-0.052060787
40	0x3d7bd0d0	0.061478436
41	0xbea270ab	-0.31726584
42	0xbf81c8b5	-1.0139376
43	0x3da15347	0.07877212
44	0xbe81f7dc	-0.25384414
45	0x3f0f901a	0.56079257
46	0x3c8b208d	0.016983295
47	0x3ef539f9	0.47895792

fc3_pi.bias f4 [2]
0	0xbdbdce7d	-0.092679
1	0xbe40c753	-0.18826036

fc3_v.weight f4 [1, 24]
0	0xbd433615	-0.047659
1	0x3de75e32	0.11297263
2	0x3efb30d5	0.49060693
3	0x3e0869e0	0.13321638
4	0xbec0e637	-0.3767564
5	0x3e8fa2ae	0.28053802
6	0x3d60b4a8	0.054859787
7	0x3d938c15	0.07204453
8	0xbd2d5dc4	-0.04232575
9	0xbd0f2bd2	-0.0349539
10	0xbc8e47a0	-0.017368138
11	0xbc04165d	-0.008061972
12	0x3cd419b1	0.025891157
13	0xbd8878f4	-0.06663695
14	0xbdbc4814	-0.09193435
15	0x3edd0f99	0.43175963
16	0xbd1422fd	-0.03616618
17	0x3ee9ddb2	0.45676953
18	0xbf47dea4	-0.780741
19	0x3d19ccfe	0.03754901
20	0x3dfa0e65	0.12209777
21	0x3e932174	0.2873646
22	0xbe51c123	-0.20483832
23	0xbf15e704	-0.58555627
