PPO/best_models/2/best_model.model (torch, 6308 bytes, 7 tensors)

fc1.weight f4 [24, 4]
000000 69 b9 0b be 34 24 37 3e f5 fb 14 bf 71 40 3b 3d
       -0.13644947 0.17884904 -0.58196956 0.045715753
000010 f0 18 95 be 3b d8 61 be f9 4c b8 bd 44 4a 0a bf
       -0.29120588 -0.22055142 -0.08999056 -0.5401957
000020 d3 73 fb be 4a 6c c8 3e 9d d8 c8 bf 33 04 1f c0
       -0.49111804 0.39145118 -1.5691105 -2.4846313
000030 15 f9 e2 bd f2 f5 c4 be 37 e5 b7 bf a4 88 26 c0
       -0.11082665 -0.3846889 -1.4366826 -2.60209
000040 85 2f 9c 3f 49 ab cb bb 6b ba 93 bf 1d 6e 82 3e
       1.2202002 -0.006215487 -1.1541265 0.25474635
000050 28 2c dc 3a cc 14 48 be ad 2c 96 3f e8 ed d3 3f
       0.0016797828 -0.19539183 1.1732384 1.6556978
000060 5a 81 da bd f5 6b 2b 3e 85 0a 9b 3f 9f f0 0e 40
       -0.10669203 0.16740401 1.2112585 2.2334363
000070 58 e3 e0 bd 22 e1 41 3e b4 e8 2e bf 8b a6 f0 be
       -0.109808624 0.18933538 -0.68323827 -0.47002062
000080 5e 22 93 bd 7a 79 01 bc 34 22 5a 3f a3 ae 2e 3e
       -0.071842894 -0.007902497 0.8520844 0.17058806
000090 39 e0 2d 3f ce b8 01 3f 43 dd df 3e dc c5 b2 bc
       0.6792026 0.50672615 0.43723497 -0.021822862
0000a0 a4 f4 58 bf 57 ea 65 3e b8 04 2c 3f 5d 86 a5 3d
       -0.8474829 0.22452675 0.671947 0.080822684
0000b0 3a 4a cc 3c 84 56 f9 3c 80 ef 82 bd 12 e2 15 3e
       0.024937738 0.030436762 -0.06393337 0.1463702
0000c0 09 cd c0 3f fe b5 02 bf 71 80 03 bf b2 46 14 be
       1.5062572 -0.5105895 -0.5136786 -0.14480093
0000d0 0e 47 b8 bd 23 5f ac bd 5b 19 17 be f1 55 d9 bd
       -0.089979276 -0.084165834 -0.14755766 -0.10612095
0000e0 15 9d d1 be f8 db 87 3e 34 0b f4 bf 54 94 08 c0
       -0.40940157 0.2653501 -1.9065919 -2.1340532
0000f0 41 f7 80 3d c6 52 ca bd 74 0c ac 3e 18 43 73 bd
       0.0629716 -0.09879069 0.3360325 -0.059390157
000100 25 45 c7 3c 04 c1 66 3d 95 7f bb 3f d7 e9 28 40
       0.024324963 0.056336418 1.464831 2.6392725
000110 56 54 c1 3d 30 f7 1e be 59 12 5a be 6e 62 f4 be
       0.09439914 -0.15523982 -0.21296062 -0.47731346
000120 20 06 47 bd ce a2 ae bd ce a3 19 3f aa 5b 88 3f
       -0.048589826 -0.08527146 0.6001557 1.0652974
000130 e6 1d a6 be d8 40 3a 3e ed 43 ba 3d 61 bf eb 3e
       -0.32444686 0.18188798 0.09094987 0.46044448
000140 98 34 d6 3c 58 8e 57 bd 58 84 f0 bf 96 88 2a bf
       0.026148126 -0.052625984 -1.8790388 -0.66614664
000150 fc 5c a8 be b8 13 a5 be a0 da ac be 17 6b e9 3c
       -0.3288344 -0.32241607 -0.33760548 0.028493447
000160 e0 38 08 bf 6d df c6 be 0a a8 42 bf e4 9f cf be
       -0.53211784 -0.38842335 -0.7603766 -0.40551674
000170 f0 32 83 bd 48 70 95 3d fc 66 30 be a0 e5 3e 3d
       -0.064062 0.072968066 -0.17226785 0.046605706

fc1.bias f4 [24]
000000 d9 ed 25 bf 8c d8 25 bf e2 d8 87 3b c7 8c 3c 3e
       -0.6481605 -0.6478355 0.0041457275 0.18413077
000010 d3 38 bd be d8 77 df 3e ab 24 04 3e 1a 4b 5f 3f
       -0.36957416 0.4364612 0.12904613 0.8722397
000020 9b 81 50 3e 0a e8 26 bf 97 73 50 be 9d f1 28 bf
       0.2036194 -0.65197814 -0.20356594 -0.6599367
000030 42 94 bd be 53 23 00 bf 60 c1 12 bd 09 9c ad be
       -0.37027174 -0.500539 -0.035828948 -0.33908108
000040 c8 0b 2e 3e dd c5 35 bf 20 02 54 3f e7 e5 96 3f
       0.16996682 -0.7100504 0.8281574 1.1788911
000050 d0 95 53 3f ea cf e1 3e 48 59 25 3f 82 6d de be
       0.8265047 0.44103938 0.6458936 -0.43442923

fc2.weight f4 [24, 24]
000000 7d 34 96 be 10 d7 0b be 96 8e 8d 3e 6e 7a 85 3e
       -0.2933692 -0.13656259 0.27647847 0.2606997
000010 d0 b0 a3 bf 1b 39 29 bf ad 3e 4c bf bf ef 9d be
       -1.2788334 -0.6610276 -0.79783136 -0.30846974
000020 79 89 21 bf c3 ca 41 3e f2 b3 1a 3e 34 bc 12 3d
       -0.6310039 0.18925004 0.15107706 0.035824016
000030 45 fb 05 bf 58 ed d1 3c 56 9b 02 3f 68 7b da 3c
       -0.5233653 0.02562587 0.51018274 0.026670173
000040 3a cf 73 bf 64 70 ba 3d 20 5d 4e bf 42 20 70 bf
       -0.9523808 0.09103468 -0.8061085 -0.9379922
000050 2a 61 04 be 56 96 ba 3e 0f 7d 49 be 6c d9 ed 3d
       -0.1292769 0.36442822 -0.19676612 0.116137356
000060 b3 cc 06 be 68 5e b4 3c 24 ea 14 be 98 45 b6 be
       -0.13164024 0.022017673 -0.14542443 -0.3559997
000070 98 de b8 bd be 2c 0a bd f6 2a da ba 4b a6 8a bd
       -0.090268314 -0.033734076 -0.0016644883 -0.06769999
000080 cd 5a 30 be 48 35 26 be 84 9f 9b 3d 30 c7 1f 3d
       -0.17222138 -0.16231263 0.075987846 0.03900832
000090 62 91 2d be 71 44 5d 3d d7 22 f8 bd 61 24 94 3d
       -0.1694999 0.05402035 -0.1211602 0.07233501
0000a0 5a 29 a8 bc 2a 45 04 be b2 5a a2 be 1a ec c6 bd
       -0.02052753 -0.12917009 -0.3170982 -0.097130015
0000b0 02 f4 a7 bd fa 1b 98 be 1e 37 b3 be 90 bd f2 3c
       -0.08200838 -0.29708844 -0.3500299 0.029631406
0000c0 78 11 19 3e 58 3a 2b 3e 77 33 9c be 16 03 9f 39
       0.1494807 0.16721475 -0.30508015 0.00030329142
0000d0 58 4f eb bc c9 c8 21 be c5 49 fe bd 56 63 99 be
       -0.028724357 -0.1579925 -0.12416414 -0.299586
0000e0 d4 4f 85 be dc 1b 55 3d ec 3e b6 bd c4 de 16 3e
       -0.26037467 0.052028522 -0.0889872 0.14733416
0000f0 08 85 1b be a5 e4 2f 3e f7 d2 92 be 52 b6 34 3e
       -0.15187466 0.17177065 -0.28676578 0.17647675
000100 01 6d f1 bd 13 b6 e6 bd 48 df 70 be 04 31 3c be
       -0.11788369 -0.11265197 -0.23522675 -0.18378073
000110 2c b6 c1 bc 7b 0d e9 bb 55 eb cd 3b e0 6f 76 3d
       -0.023646437 -0.0071122027 0.0062841573 0.060165286
000120 de 0d bf bc e0 09 bd 3e a6 a6 72 bf 69 11 8d bf
       -0.023322042 0.36921597 -0.94785535 -1.1020938
000130 cc 6c 88 bf 20 f5 48 3f af 7d 94 3f 22 89 50 3b
       -1.0658202 0.7849903 1.1600856 0.0031820019
000140 b8 fe 07 3e cd b3 0f bf 3c 06 6e bf 48 94 8f 3e
       0.13280761 -0.5613373 -0.9297826 0.28042817
000150 c8 be 3a bf 0c fd 88 3d 00 01 a9 bf 75 fc e3 3d
       -0.7294736 0.0668889 -1.320343 0.11132137
000160 d8 7c 86 3f 3e 95 c0 3e 43 f0 9e 3e d9 08 d7 3e
       1.0506849 0.37613863 0.3104268 0.41998938
000170 aa 4a 49 bd 6e 55 bc bc f9 f8 8e be 9a e3 08 3e
       -0.04914347 -0.022989955 -0.27924326 0.13368073
000180 e4 e3 09 be 9a b6 07 3e b2 d9 db bd 12 a1 d2 3d
       -0.1346584 0.1325325 -0.107348815 0.10284628
000190 70 9c 10 bd 00 a2 15 be 9c 05 1c bd 48 ad b5 3c
       -0.03530544 -0.1461258 -0.038091287 0.022177354
0001a0 cc b2 03 3c fc 55 94 be d8 35 58 bd b4 88 1e be
       0.008038234 -0.2897185 -0.052785724 -0.15481836
0001b0 b4 62 33 be 71 fb 6c 3e c9 63 7c be 37 bb 3b 3e
       -0.17518121 0.23142792 -0.2464744 0.18333136
0001c0 dc 4b 23 be 2c 1b 25 be fb 53 3f bd b8 60 5e be
       -0.15946907 -0.16123646 -0.04671095 -0.21716583
0001d0 83 5d 85 be e3 32 d1 3c 49 87 03 3d 34 ad 06 be
       -0.26047906 0.02553696 0.03211144 -0.13152009
0001e0 20 77 65 3d 96 64 1a be 00 8d db ba 40 f6 b4 3d
       0.05602181 -0.15077433 -0.0016750395 0.08836031
0001f0 1d db 68 be 9d a1 6e 3c ea ee 97 be e0 6f fb bb
       -0.22739835 0.014564899 -0.29674464 -0.0076732486
000200 9e c1 41 be a9 45 46 be d1 25 ba bd 00 76 de ba
       -0.18921515 -0.1936251 -0.09089244 -0.0016972423
000210 f4 07 6a be c6 7c cd bd 4c eb 09 be 58 f5 a1 3d
       -0.22854596 -0.10033564 -0.13468665 0.07908124
000220 37 0a bc bb e0 3e b2 3d 41 26 19 3d cc a6 0b be
       -0.0057385224 0.08703399 0.037389997 -0.13637847
000230 f0 9e d4 bd db 87 53 3d f3 79 b5 bd 80 f3 fb 3d
       -0.103818774 0.051643234 -0.088611506 0.12302303
000240 20 62 02 be 20 7a 8a bd 07 96 90 be 35 f1 2f 3d
       -0.12732744 -0.06761575 -0.28239462 0.042954642
000250 6c 03 74 bd 90 61 8d bd 54 85 ca bd 6f 51 e3 bb
       -0.059573576 -0.06903374 -0.098887116 -0.006937198
000260 dc 65 39 be f3 b7 97 be b0 66 f3 3c 5c 7a 66 bd
       -0.18105263 -0.2963253 0.029712051 -0.056269035
000270 60 03 5f 3c d6 52 9c bd 67 bc 36 be 20 bb c1 3c
       0.0136116445 -0.07632987 -0.17845307 0.023648798
000280 46 f7 88 bd 60 5b 8c bd 10 3a a5 be 81 4e 05 bd
       -0.06687789 -0.06853366 -0.3227086 -0.03254557
000290 49 76 82 bd 6f 7c c6 bd 2e 6c 7c be 60 8e c6 3c
       -0.06370217 -0.096917026 -0.24650642 0.024237812
0002a0 2a 47 2b 3e 55 41 0f be 3a 3d 67 3e cb 17 e5 3e
       0.16726366 -0.13989766 0.2258195 0.44744715
0002b0 6c e0 ba ba c1 a8 a8 3d 76 0f fd be 35 7c cf 3e
       -0.0014257557 0.08235312 -0.49425858 0.4052445
0002c0 21 9f 7a bd a4 13 09 bf cf dd 9c bf f3 e5 7a be
       -0.061186913 -0.53545594 -1.2255191 -0.24501781
0002d0 32 47 dc 3d fa 80 2e 3e f4 c9 87 3e 74 17 f9 bd
       0.10755767 0.17041388 0.26521266 -0.121626765
0002e0 e4 2a bf be e3 ca 40 be a8 eb 08 3f e1 7d 35 3f
       -0.3733741 -0.18827395 0.5348458 0.708952
0002f0 db 23 54 3f 19 5d 64 3e 59 86 03 3f cc 21 d4 3d
       0.8286721 0.22301139 0.51376873 0.10358009
000300 80 fc c8 3a a6 e8 64 3e 53 aa 42 bf e7 89 a1 bf
       0.001533404 0.22354373 -0.76041144 -1.262021
000310 b1 a6 04 bf b4 56 ad 3e 11 ab 29 3f 1e 42 75 3d
       -0.5181685 0.33855212 0.6627665 0.059877507
000320 fd fc 8b 3e 51 1b 1e bf 84 3f 95 bf fd b6 f8 3d
       0.27341452 -0.6176043 -1.1660008 0.12144277
000330 9d ba 22 bf 11 3a 92 3e 3c ec 85 bf 54 5a 80 3e
       -0.63566 0.28559926 -1.0462718 0.25068915
000340 e3 4b 2b 3f 4b e3 29 3e 05 4a 12 3f d9 00 97 3e
       0.6691267 0.16590612 0.57144195 0.29492834
000350 41 1c 69 3c ee 55 27 be 41 73 16 bd 68 68 28 be
       0.014227928 -0.16341373 -0.03673101 -0.16446078
000360 d8 ba b4 3e a0 cb 09 bf 15 97 cc 3e 0d d2 b9 3e
       0.352988 -0.5382633 0.39959016 0.3629307
000370 9f a4 38 be a7 53 1b bf 3c c5 b5 bf 58 87 40 3e
       -0.18031548 -0.6067452 -1.4200816 0.1880163
000380 5c 17 a0 3e 25 ac 60 be cf d5 89 bf 3a 4c 58 bd
       0.31267822 -0.21940668 -1.0768374 -0.05280707
000390 1e 77 66 be b4 18 84 3e f9 6b f0 3e e2 b6 00 3d
       -0.22506377 0.25800097 0.46957377 0.03142441
0003a0 34 83 05 c0 fc 36 cc bd fb 14 1a 3e 05 be d5 3e
       -2.086133 -0.09971425 0.15047066 0.41746536
0003b0 a1 8f 0d 3e a8 72 76 3d 50 2f 8e 3d 7e 7a 4c 3e
       0.13824321 0.06016794 0.06942618 0.19968602
0003c0 6e 98 b9 bd 38 9d 55 bc f7 6e c9 3d 4b 7b 88 3d
       -0.09062277 -0.013037972 0.09835618 0.06664141
0003d0 23 6e 89 be 17 3e 3b 3d 40 cb eb bc 61 8f b8 3e
       -0.2684184 0.04571351 -0.02878344 0.3604689
0003e0 8b 61 62 3d 8d f4 ff bd 25 03 7c bf 67 2a 37 bd
       0.055268805 -0.12497816 -0.984423 -0.044718172
0003f0 63 c9 aa be b4 26 8e bd 50 5c 11 be 62 fe 04 3e
       -0.3335677 -0.06940976 -0.1419537 0.12987664

fc2.bias f4 [24]
000000 14 f6 a5 be 29 db f6 bc 4a 99 05 bd 08 7a 5b 3a
       -0.32414305 -0.0301338 -0.03261689 0.0008372371
000010 42 c9 f8 bd b1 fd 7c be d7 86 9e bd e3 34 7d 3f
       -0.12147762 -0.2470615 -0.077405624 0.98908824
000020 c9 41 2f 3e 8e 27 48 3e cd 23 30 3f 0a ee b9 be
       0.17114939 0.19546339 0.6880463 -0.36314422
000030 56 a3 24 be 5e 7e 9e 3e bf bd 7d be 6e f9 55 be
       -0.16077933 0.30955786 -0.24779414 -0.20895931
000040 09 f0 e1 3d 6f fe 2d 3d 17 30 45 be 55 23 1c 3f
       0.11032111 0.042478975 -0.19256626 0.6099141
000050 09 39 38 be 1c 56 96 bd e6 de 95 be 3d 39 39 3f
       -0.17990507 -0.07340643 -0.2927162 0.72352964

fc3_pi.weight f4 [2, 24]
000000 69 51 82 bf be 74 b8 3c b7 a7 9b 3d 03 38 cd bf
       -1.0181094 0.022516605 0.076003484 -1.6032718
000010 67 02 ae bd 94 5a 5e 3e 30 0b ab bd 83 cc 7e 3f
       -0.08496552 0.2171424 -0.08351743 0.9953081
000020 bf 79 92 bf 63 03 aa 3f 69 0c ca 3e d5 55 71 3e
       -1.1443404 1.3282284 0.39462593 0.23567899
000030 2a 1c cf bd 40 4b f1 bf 08 dc c9 3d 61 2a 8d 3c
       -0.10112794 -1.885109 0.09856421 0.017232122
000040 bc 34 a1 bf 8e c8 c9 bf 42 91 04 be 08 1a 50 bf
       -1.2594218 -1.576433 -0.12946036 -0.8128972
000050 b8 7e 72 3d 87 ec a3 3d 4a f8 a9 3d bf 67 bf 3d
       0.05920288 0.080040984 0.082993105 0.0934596
000060 d3 ee 63 3f 05 d5 e4 3d 58 78 54 3e 09 92 cf 3f
       0.8903629 0.11173443 0.20749032 1.6216441
000070 13 bd 40 3e 04 36 89 3d cd 95 3f 3d cb dd 8a bf
       0.18822126 0.06699756 0.04677372 -1.0848936
000080 67 2f 69 3f 59 15 87 bf bf de 2e be a6 c2 00 be
       0.91087955 -1.055339 -0.17077158 -0.12574252
000090 ae cd 10 3e c4 60 ea 3f 50 7d 85 be ea cc a0 bc
       0.1414096 1.831078 -0.26072168 -0.01962896
0000a0 9a 72 98 3f 86 6c c6 3f cd c1 7c bc cc 0d 72 3f
       1.1909974 1.5501869 -0.015427065 0.945523
0000b0 a4 b5 30 3e 32 28 81 3d f9 74 a3 3e b8 8a be be
       0.1725679 0.06306495 0.3192518 -0.3721521

fc3_pi.bias f4 [2]
000000 7a 30 be 3e 5a 12 8e be
       0.3714636 -0.27748376

fc3_v.weight f4 [1, 24]
000000 4d 6b cb be e5 8f 19 3d 83 8f a2 3a 48 37 a7 3b
       -0.39730301 0.037490744 0.0012402389 0.0051030256
000010 16 06 b7 3a cd 4d 8b bd 07 cf e0 3d e8 08 1a 3f
       0.0013963606 -0.06801949 0.10976987 0.6016984
000020 d7 92 0d bc fa a2 cf 3c 0e 5f c1 3e 8e 24 74 bd
       -0.008640966 0.025346268 0.37767833 -0.059605174
000030 fd 05 be bd d3 33 02 3d 68 41 6f be e1 a7 1b bd
       -0.09278486 0.031787705 -0.23364794 -0.0380019
000040 90 88 60 bc 98 54 0b bd a9 bc 55 bd 4c 4a 2e 3e
       -0.013704434 -0.03401622 -0.052181873 0.1702053
000050 14 97 18 3e f2 d1 bb bd 95 00 d6 3c 2b cb 0f 3f
       0.14901382 -0.09170903 0.026123324 0.56169385
